hand-gesture-recognition-mediapipe-main/model/keypoint_classifier/keypoint_classifier.tflite (tflite, 6632 bytes, 6 tensors)

sequential/dense/BiasAdd/ReadVariableOp f4 [20]
0.04383964 -0.41718408 -0.53047335 -0.2701772 -0.09602773 -0.5034391 -0.10975881 -0.10978688
-0.10310765 -0.44798982 -0.44437283 -0.3085503 -0.33565238 -0.6420734 -0.14614926 -0.0477099
-0.52277094 -0.06596271 -0.40050125 -0.587669
00000000: 3291 333d 2799 d5be 1acd 07bf aa54 8abe
00000010: 30aa c4bd 63e1 00bf 3ac9 e0bd f2d7 e0bd
00000020: 1b2a d3bd ec5e e5be d684 e3be 4efa 9dbe
00000030: a1da abbe ec5e 24bf 27a8 15be 756b 43bd
00000040: 51d4 05bf 7517 87bd 800e cdbe 7a71 16bf

sequential/dense_2/BiasAdd/ReadVariableOp f4 [6]
0.97658813 -0.2285901 -0.6295264 -0.52058816 0.16915312 0.24341442
00000000: ae01 7a3f 8613 6abe a428 21bf 4445 05bf
00000010: 7a36 2d3e a141 793e

sequential/dense_1/BiasAdd/ReadVariableOp f4 [10]
0.34723696 0.87882197 0.37653524 -0.12797199 0.8721848 0.28919917 -0.058262892 0.4076981
-0.24285693 0.37552848
00000000: 0bc9 b13e 7afa 603f 3ac9 c03e 170b 03be
00000010: 8147 5f3f ea11 943e 12a5 6ebd cebd d03e
00000020: 7daf 78be 4545 c03e

sequential/dense/MatMul f4 [20, 42]
-0.1730326 -0.30917546 0.1924915 0.80850524 0.07715862 0.8872445 0.3075401 0.35788795
-0.1291858 -0.039239243 0.18351626 -0.12325931 -0.11789063 0.9390218 -0.099937595 0.6370452
0.11286266 0.43684 0.08218527 -0.41197953 0.007673172 0.5214503 0.111840725 0.62525207
-0.027110675 0.13341978 -0.07493886 -0.4664344 0.06761622 0.4302139 -0.14168516 0.28136054
0.108145 -0.10513701 -0.09758619 -0.18831311 0.033099186 0.07020852 0.078910336 0.12972641
0.1967094 0.16352564 -0.107853636 0.06159967 -0.037913926 -0.76255625 -0.035589524 -0.6847669
-0.048470978 0.065063186 0.0016980849 0.41565716 -0.0361683 0.03304768 -0.26317894 -0.15040673
-0.27762505 -0.19033875 -0.3417587 -0.07341337 0.3213828 -0.0248401 -0.15264769 -0.12972808
-0.20405498 -0.17098457 -0.3647511 -0.140188 1.1558667 0.036092084 -0.31374505 0.12215697
-0.35478887 0.23224697 -0.36610585 0.21386671 0.9362635 0.027970431 -0.16098246 0.17949414
-0.73551315 0.28372392 -0.79967386 0.27949443 0.001342237 0.23747635 -0.68022895 0.7421318
-0.63920313 0.07412072 -0.5722941 0.20608343 -0.90782803 0.13248183 -0.3962118 -0.16496071
0.07947569 -0.07140638 0.24360605 -0.21543713 0.2429401 -0.051662367 -0.15328628 -0.15319546
0.14722143 0.09635231 0.19294152 0.1669148 0.040406894 0.112351805 0.061408654 -0.05132003
0.04544756 0.10519686 0.07503943 0.19876471 -0.3402639 0.11398019 0.36812305 -0.11285381
-0.013447264 -0.093868956 -0.22975865 0.033396635 -0.2306547 -0.0056387642 0.11142388 0.075713575
0.14344595 0.9538243 0.043892667 0.17506707 -0.09137905 0.23533837 -0.04637795 0.15105762
0.07720197 0.08324663 -0.038302116 -0.11242529 -0.053200696 -0.23435496 0.050450623 -1.5166812
-0.19851771 0.11013902 0.021495482 0.07164105 0.0042949445 0.11498123 0.06252969 0.090634465
-0.016592966 0.14448091 0.034432393 0.08436218 0.3114984 0.10007965 0.22630994 0.05977637
-0.25887516 0.013897446 -0.21048823 0.0021698507 -0.01835312 0.020712974 0.13151173 0.051771574
0.2110852 0.21339226 0.11778457 0.61391366 0.045168336 0.13853282 -0.04055542 -0.49588728
0.09450618 -0.43585202 0.17911044 -0.69105685 -0.0472913 0.21989022 -0.04803332 0.5124975
-0.076097816 0.18944667 0.058180436 -0.6322999 -0.023378648 0.3469728 -0.05871733 0.42081735
-0.023822516 0.21571043 0.2888124 -0.2952569 -0.08140426 0.22416402 -0.15793742 0.26585573
-0.108136564 0.046860777 0.14197697 -0.44356757 0.09310152 0.19774023 0.09070367 0.21650556
-0.124699175 -0.030887047 -0.2959546 0.007847339 0.2177016 -0.05711848 0.15538996 0.3645961
0.1787726 0.492343 -0.03816934 0.53527564 -0.14175335 0.06933288 -0.12590027 -0.03625948
-0.010689482 0.019759428 0.0560306 0.017037306 -0.27510548 0.1217158 -0.13672611 -0.05767253
-0.099806644 0.030356549 0.057414245 0.0699338 -0.2411698 -0.010647066 0.1508253 -0.28941852
0.32758614 -0.47400284 0.4059693 -0.4160424 -0.0027816135 -0.09593322 0.17928347 -0.32047382
0.3004584 -0.68366456 0.47891298 -0.5920805 -0.09880306 -0.0052564144 0.140769 -0.9997161
00000000: 752f 31be 3f4c 9ebe 7e1c 453e 33fa 4e3f
00000010: 5705 9e3d 7522 633f e575 9d3e 173d b73e
00000020: 4849 04be 54b9 20bd b0eb 3b3e 616f fcbd
00000030: a570 f1bd bc63 703f 15ac ccbd 6515 233f
00000040: 8a24 e73d 7ea9 df3e c050 a83d fbee d2be
00000050: 3b6f fb3b c47d 053f c00c e53d 8510 203f
00000060: 3517 debc 329f 083e 8c79 99bd 7dd0 eebe
00000070: 5f7a 8a3d ff44 dc3e ea15 11be 7d0e 903e
00000080: 207b dd3d 1352 d7bd 45db c7bd 27d5 40be
00000090: 0393 073d 7cc9 8f3d be9b a13d 00d7 043e
000000a0: 306e 493e 4473 273e 5ee2 dcbd f04f 7c3d
000000b0: a24b 1bbd e336 43bf 52c6 11bd e24c 2fbf
000000c0: 8189 46bd d93f 853d 4692 de3a 04d1 d43e
000000d0: 3625 14bd 015d 073d 64bf 86be 3904 1abe
000000e0: df24 8ebe 29e8 42be fffa aebe c059 96bd
000000f0: 498c a43e 777d cbbc ad4f 1cbe 70d7 04be
00000100: caf3 50be 9416 2fbe a8c0 babe 718d 0fbe
00000110: 71f3 933f 4bd5 133d 31a3 a0be 6f2d fa3d
00000120: e3a6 b5be 26d2 6d3e 3a72 bbbe e0ff 5a3e
00000130: f7ae 6f3f 3f22 e53c 96d8 24be 50cd 373e
00000140: 974a 3cbf 4344 913e 6db7 4cbf e519 8f3e
00000150: 00ee af3a 002d 733e 7c23 2ebf 5afc 3d3f
00000160: d1a2 23bf 9bcc 973d de81 12bf 8907 533e
00000170: 6b67 68bf 51a9 073e 46dc cabe 76eb 28be
00000180: 27c4 a23d 823d 92bd dd73 793e 8d9b 5cbe
00000190: 4ac5 783e eb9b 53bd 14f7 1cbe 45df 1cbe
000001a0: 37c1 163e 5c54 c53d 7692 453e b7eb 2a3e
000001b0: b381 253d b418 e63d a487 7b3d f434 52bd
000001c0: 3827 3a3d 7471 d73d 46ae 993d fa88 4b3e
000001d0: 1237 aebe 726e e93d a07a bc3e e61f e7bd
000001e0: ea51 5cbc 5e3e c0bd da45 6bbe e9ca 083d
000001f0: bf30 6cbe 62c5 b8bb 3432 e43d b80f 9b3d
00000200: 7fe3 123e d42d 743f ccc8 333d c844 333e
00000210: f024 bbbd 8bfc 703e cef6 3dbd d9ae 1a3e
00000220: 111c 9e3d 367d aa3d aee2 1cbd 3b3f e6bd
00000230: f9e8 59bd bffa 6fbe 50a5 4e3d 9c22 c2bf
00000240: 3a48 4bbe 9190 e13d 4b17 b03c 8bb8 923d
00000250: 9bbc 8c3b 477b eb3d 910f 803d 909e b93d
00000260: f9ed 87bc cef2 133e fb08 0d3d 14c6 ac3d
00000270: b87c 9f3e 8ff6 cc3d cbbd 673e 11d8 743d
00000280: 498b 84be 1db2 633c 3a8a 57be 0e34 0e3b
00000290: 4859 96bc 41ae a93c 03ab 063e 6e0e 543d
000002a0: b826 583e 8083 5a3e 0939 f13d 7229 1d3f
000002b0: 6f02 393d 8cdb 0d3e 711d 26bd f0e4 fdbe
000002c0: 758c c13d ff27 dfbe ba68 373e 1ae9 30bf
000002d0: 86b4 41bd e72a 613e 96be 44bd 0933 033f
000002e0: 2cd9 9bbd 4ffe 413e 9c4e 6e3d 68de 21bf
000002f0: 9484 bfbc 6ba6 b13e 9581 70bd 5f75 d73e
00000300: 7027 c3bc 32e3 5c3e 38df 933e ea2b 97be
00000310: 47b7 a6bd 418b 653e 59ba 21be 3e1e 883e
00000320: b476 ddbd 16f1 3f3d 6962 113e 4a1b e3be
00000330: 02ac be3d 6a7c 4a3e d9c2 b93d a2b3 5d3e
00000340: 4862 ffbd d506 fdbc 5d87 97be 2092 003c
00000350: 2bed 5e3e 11f5 69bd 8c1e 1f3e 57ac ba3e
00000360: 2a10 373e 6214 fc3e 7457 1cbd d307 093f
00000370: ca27 11be 66fe 8d3d 00ec 00be d284 14bd
00000380: f022 2fbc 86de a13c 5880 653d d291 8b3c
00000390: a0da 8cbe 2246 f93d ee01 0cbe 083a 6cbd
000003a0: 6d67 ccbd 4cae f83c 332b 6b3d 7439 8f3d
000003b0: 37f5 76be 0871 2ebc f371 1a3e aa2e 94be
000003c0: 5fb9 a73e 80b0 f2be 35db cf3e 8203 d5be
000003d0: bb4b 36bb a378 c4bd 1696 373e 2515 a4be
000003e0: afd5 993e a404 2fbf 1534 f53e 9692 17bf
000003f0: 4259 cabd 003e acbb c025 103e 65ed 7fbf

sequential/dense_1/MatMul f4 [10, 20]
-0.5323446 0.74298173 0.21553095 -0.050630316 0.80361706 0.2764108 0.44368488 0.18093069
0.9260417 -0.33148348 0.260409 -0.3331778 -0.29947385 0.38075683 1.1895082 0.91099703
0.5864018 0.06699417 -0.120267004 0.42142707 0.31948432 -0.43762365 -0.14612895 0.115339056
-0.7407212 0.2016459 0.4228679 -0.06202561 0.06524283 0.38571838 0.92147124 0.082428634
-0.30172852 -0.053813424 -1.0293027 -0.26499823 -0.69823813 0.5499645 -0.022001082 -0.5054802
-0.44843593 -0.66524124 -0.89286065 -1.2791448 -0.583418 0.22002494 0.25929424 -0.6541945
-0.5467531 0.46505368 0.14516637 -1.8283094 -1.2898065 0.28091282 -0.21608467 0.55678535
-1.2526326 0.43539044 0.14206329 -0.7635882 0.121408105 -0.20992884 1.0067178 0.16482338
-0.09782944 0.40029073 -0.011256279 0.014579518 0.5669751 0.5821971 0.06854506 0.14116292
0.069678776 -0.5992953 0.78698397 -0.08129235 -0.28182936 -0.017520268 0.45314324 0.45745772
-0.5475358 0.307606 0.24094616 0.62679076 -0.3170049 0.4179019 -0.13135417 0.452866
-0.7897741 0.2135382 -0.9018863 0.754521 0.5750511 0.13703388 -0.0008018261 -0.41110998
0.34555787 -0.37620628 0.21120174 0.37270272 1.2713118 0.88729924 0.44771394 0.7983647
0.7343871 0.29101178 0.29400414 1.0924457 0.6953954 -0.16689436 -0.20509827 0.38586614
0.06615882 0.32381636 1.1127689 0.49292657 0.73333615 0.11052392 -0.76391983 0.8290992
0.36983413 -0.44591218 0.29984862 0.42138124 0.7701564 0.10461063 -0.053783566 -0.060974583
0.47550628 0.2214375 0.395357 0.5540658 0.56745607 0.663446 -0.5678263 0.03562237
0.25738212 -0.11106314 0.4201643 0.104577176 -0.31511274 0.3930186 -0.07651794 0.540558
-0.3089599 0.07132688 0.9841491 0.1629261 -0.61348987 0.05631412 0.3880786 0.7936139
0.9483173 0.02063193 -0.03144303 0.14699325 -0.19952017 0.935663 -0.26412326 -0.04748546
-1.0087267 -0.28397793 0.6083621 0.17518607 -0.32228452 1.0515753 0.198824 -0.0705167
-0.6721043 1.0969368 1.1424519 0.15849954 0.081287794 0.7792166 -0.1101551 0.25735414
0.8817586 0.184874 1.0687027 0.77692306 -0.89610916 -0.5429561 -0.2287557 0.37046984
-0.8165314 0.48513743 0.36606857 -0.48481056 -0.7280821 0.6709168 1.2308029 -0.0777432
-0.10559386 0.27892992 -0.9997732 -0.2618097 -0.64370084 -0.15472956 0.34303227 -0.35746035
00000000: bc47 08bf 0d34 3e3f 25b4 5c3e bc61 4fbd
00000010: d9b9 4d3f b785 8d3e aa2a e33e e545 393e
00000020: 1211 6d3f 34b8 a9be 5454 853e 4896 aabe
00000030: a354 99be 8ff2 c23e ce41 983f 1a37 693f
00000040: 6e1e 163f 3d34 893d 8c4e f6bd 4ac5 d73e
00000050: 7393 a33e 3510 e0be d4a2 15be e236 ec3d
00000060: e89f 3dbf 437c 4e3e 2482 d83e 910e 7ebd
00000070: 089e 853d e17c c53e 8ae5 6b3f 58d0 a83d
00000080: 297c 9abe 776b 5cbd 31c0 83bf d9ad 87be
00000090: bcbf 32bf 79ca 0c3f 9d3b b4bc 2667 01bf
000000a0: 6599 e5be 404d 2abf 8492 64bf 04bb a3bf
000000b0: e25a 15bf 384e 613e 37c2 843e 4a79 27bf
000000c0: 03f8 0bbf 841b ee3e 7ea6 143e 0b06 eabf
000000d0: 6118 a5bf ced3 8f3e 4d45 5dbe 7c89 0e3f
000000e0: 4456 a0bf 7feb de3e 0a79 113e 847a 43bf
000000f0: d0a4 f83d 96f7 56be 21dc 803f 76c7 283e
00000100: cd5a c8bd e8f2 cc3e 426c 38bc eede 6e3c
00000110: 4825 113f df0a 153f 5a61 8c3d 038d 103e
00000120: bfb3 8e3d 6b6b 19bf c877 493f 9b7c a6bd
00000130: f04b 90be aa86 8fbc 6402 e83e e637 ea3e
00000140: 4e2b 0cbf 897e 9d3e 97ba 763e 5c75 203f
00000150: 774e a2be 3df7 d53e b581 06be 0dde e73e
00000160: a32e 4abf c2a9 5a3e 05e2 66bf 4a28 413f
00000170: 8d36 133f 9c52 0c3e a431 52ba 027d d2be
00000180: f6ec b03e 1c9e c0be 4545 583e e4d2 be3e
00000190: 58ba a23f 0b26 633f c33a e53e a161 4c3f
000001a0: cb00 3c3f 7fff 943e b687 963e 43d5 8b3f
000001b0: 6f05 323f 5be6 2abe 4805 52be 3f90 c53e
000001c0: 477e 873d 42cb a53e 366f 8e3f df60 fc3e
000001d0: ebbb 3b3f 5d5a e23d 4090 43bf d83f 543f
000001e0: e65a bd3e 9a4e e4be c285 993e 48bf d73e
000001f0: f828 453f 193e d63d 284c 5cbd 7cc0 79bd
00000200: 8f75 f33e 83c0 623e 3c6c ca3e 42d7 0d3f
00000210: cd44 113f 99d7 293f 105d 11bf c3e8 113d
00000220: 97c7 833e 1275 e3bd c61f d73e 8f2c d63d
00000230: 7556 a1be bc39 c93e 70b5 9cbd 0262 0a3f
00000240: fe2f 9ebe d413 923d 32f1 7b3f 19d6 263e
00000250: ac0d 1dbf a2a9 663d 3db2 c63e 482a 4b3f
00000260: ecc4 723f 4b04 a93c 68ca 00bd 6685 163e
00000270: 044f 4cbe 9c87 6f3f 2a3b 87be 1d80 42bd
00000280: f51d 81bf 8e65 91be 9ebd 1b3f fa63 333e
00000290: 7a02 a5be 059a 863f 8598 4b3e 0f6b 90bd
000002a0: 070f 2cbf 6d68 8c3f dd3b 923f b44d 223e
000002b0: 377a a63d bd7a 473f ff98 e1bd ecc3 833e
000002c0: eeba 613f 9c4f 3d3e 40cb 883f 6ee4 463f
000002d0: 6967 65bf 2cff 0abf ef3e 6abe 39ae bd3e
000002e0: 3408 51bf ef63 f83e 576d bb3e 1739 f8be
000002f0: 9763 3abf 34c1 2b3f f38a 9d3f d437 9fbd
00000300: 9841 d8bd e7cf 8e3e 23f1 7fbf ec0b 86be
00000310: 94c9 24bf 6d71 1ebe eda1 af3e 0b05 b7be

sequential/dense_2/MatMul f4 [6, 10]
-0.5522038 0.10769614 -0.65800583 -1.3438722 0.3941275 0.43174213 -0.66469383 0.8260483
-2.0019116 -0.64195645 0.52351665 -0.41991195 -0.8820263 0.69198114 -0.95637053 0.98250383
0.52190155 -1.5845233 -0.08084117 -0.58988136 -0.9403408 -0.011126497 -0.74534637 0.24716792
-0.55457354 -0.31003618 0.27092993 0.60167223 0.7113337 0.38552094 0.47310197 -0.8900025
-0.7597912 0.19568565 0.06138533 0.68388796 -0.5478827 0.43687734 0.51576513 -1.222242
0.1703538 0.29322267 0.96515477 -0.0848613 -0.56936455 -0.93165225 -0.7075764 -0.34823948
0.3747676 0.5835854 -0.991792 -0.64511406 -0.47300878 0.54147494 0.6722824 -0.08525519
0.75092524 -0.48941106 0.4800876 -0.3530824
00000000: 3a5d 0dbf cb8f dc3d 1273 28bf 0104 acbf
00000010: 14cb c93e 4e0d dd3e 6029 2abf e777 533f
00000020: 521f 00c0 4257 24bf 3005 063f b3fe d6be
00000030: 7acc 61bf ad25 313f b3d4 74bf 5f85 7b3f
00000040: 579b 053f a9d1 cabf 0e90 a5bd 7702 17bf
00000050: 2dba 70bf e94b 36bc 05cf 3ebf 9619 7d3e
00000060: 88f8 0dbf 10bd 9ebe 54b7 8a3e 3107 1a3f
00000070: f719 363f 0063 c53e 6c3a f23e 34d7 63bf
00000080: ad81 42bf d261 483e 2f6f 7b3d 4813 2f3f
00000090: 0a42 0cbf 63ae df3e 2f09 043f 6d72 9cbf
000000a0: 3a71 2e3e 4821 963e 6214 773f c3cb adbd
000000b0: e0c1 11bf c380 6ebf ba23 35bf 724c b2be
000000c0: 8ae1 bf3e da65 153f 15e6 7dbf 3226 25bf
000000d0: 352e f2be 1a9e 0a3f b31a 2c3f 469a aebd
000000e0: a33c 403f 1694 fabe 0bce f53e 37c7 b4be
